backend/model/lstm_model.pt (torch, 192637 bytes, 8 tensors)

encoder.weight_ih_l0 f4 [256, 44]
0	0x3d88fcd1	0.06688846
1	0xbc7495b0	-0.014928266
2	0x3dbfa557	0.09357708
3	0xbcfc2d69	-0.030783372
4	0xbdddfea8	-0.108395875
5	0xbe0b4f0b	-0.13604371
6	0x39d2a74a	0.0004017896
7	0x3dd820d5	0.10553137
8	0x3dd35df7	0.10320657
9	0x3d992428	0.074775994
10	0x3ce1ff4f	0.027587561
11	0x3bc67c89	0.006057326
12	0x3d321c07	0.04348376
13	0xbca31520	-0.019907534
14	0x3da21adf	0.079152815
15	0xbe1e953e	-0.15486619
16	0x3d9c099f	0.076190226
17	0x3c3ba67d	0.011453268
18	0x3de623fc	0.11237332
19	0xbdc3a50a	-0.09552963
20	0xbcb2b480	-0.021814585
21	0xbc100001	-0.008789063
22	0xbdb656b8	-0.08903259
23	0xbd74dad6	-0.05977901
24	0xbe17fafd	-0.14841838
25	0xbdcf9360	-0.101355314
26	0x3da3da06	0.08000569
27	0x3d80fe61	0.06298519
28	0x3d7b4366	0.061343573
29	0x3d05e7f3	0.032691907
30	0x3d885d1a	0.06658383
31	0xbd50c459	-0.0509685
32	0x3d9900df	0.07470869
33	0xbd81ca55	-0.0633742
34	0x3cd2da43	0.02573884
35	0xbe00764e	-0.1254513
36	0x3d960f96	0.073271915
37	0xbdb2bb7c	-0.08727166
38	0x3e0edefb	0.13952248
39	0x3cb873e1	0.022516193
40	0x3d3fde45	0.046842832
41	0x3dfd60d0	0.12371981
42	0x3d838378	0.0642156
43	0xbd19e808	-0.037574798
44	0x3b76572c	0.003758858
45	0x3cc4dfc3	0.02403248
46	0xbbd5a475	-0.006519849
47	0xbcd8a6b9	-0.026446687
48	0x3e1aa189	0.15100683
49	0x3d5b4285	0.053530235
50	0xbd98dcda	-0.07463999
51	0x3d6df6e0	0.058096766
52	0x3c49b2cc	0.012310695
53	0xbd7cc98c	-0.061715648
54	0x3d305f28	0.043059498
55	0xbe2cfc19	-0.16893043
56	0xbdf3860b	-0.11890801
57	0x3cd5629d	0.026047999
58	0xbe18faea	-0.14939466
59	0x3d98277b	0.07429405
60	0xbcef6e93	-0.02922753
61	0x3d3a3111	0.04545695
62	0xbe63f4b7	-0.2226132
63	0xbd82fdec	-0.06396088
64	0xbc894b27	-0.016759468
65	0xbd16d88e	-0.036827616
66	0x3dd134b4	0.102151304
67	0x3db0ceff	0.08633231
68	0xbd684e69	-0.056715403
69	0xbdeac164	-0.114626676
70	0x3db0f61f	0.08640694
71	0xbe27e1f7	-0.16394792
72	0xbe18bc16	-0.14915499
73	0xbdb9e3f6	-0.09076683
74	0xbd889202	-0.06668474
75	0xbdba8641	-0.09107638
76	0xbca1184a	-0.019664902
77	0xbe08f18a	-0.1337339
78	0xbccddfa1	-0.025131049
79	0x3d14fabd	0.036371935
80	0x3dfc7110	0.123262525
81	0xbd3b6899	-0.04575405
82	0xbc3b77d9	-0.011442148
83	0x3b7cc5fb	0.0038570154
84	0x3c626e44	0.013820235
85	0x3ba3dc20	0.005000606
86	0x3d3fb784	0.046805874
87	0x3df2e740	0.11860514
88	0xbd9624c7	-0.073312335
89	0x3dc40d7d	0.09572885
90	0x3d878524	0.066171914
91	0xbd946704	-0.07246211
92	0x3d9e9dff	0.07744979
93	0x3d2a74ff	0.041615482
94	0x3cf58f5c	0.029975586
95	0xbe03c711	-0.12868907
96	0xbe154769	-0.14578022
97	0xbdd45f26	-0.103697106
98	0x3ab9a362	0.0014163072
99	0xbd89dc7a	-0.06731506
100	0x3ae80453	0.0017701484
101	0x3df41434	0.11917916
102	0x3adba2a9	0.001675685
103	0x3de42209	0.11139304
104	0xbd35913a	-0.044327952
105	0xbe0d6035	-0.13806231
106	0xbc0c1c57	-0.008551679
107	0xbd167d38	-0.03674051
108	0xbdaab316	-0.08334939
109	0x3bb37564	0.0054766405
110	0xbdd9462a	-0.10609086
111	0xbdcf25f5	-0.101146616
112	0x3d434678	0.047674626
113	0xbc2f3c50	-0.010695532
114	0xbd377280	-0.04478693
115	0xbb835ebd	-0.0040090964
116	0x3e045cc2	0.1292601
117	0x3dcf4926	0.10121374
118	0xbd62db60	-0.055384994
119	0xbd8afa03	-0.06785967
120	0xbe0039ff	-0.12522124
121	0x3a855f39	0.0010175473
122	0x3d61c339	0.05511782
123	0xbc5a6758	-0.013330303
124	0xbdadd078	-0.08487028
125	0x3dbcecea	0.09224875
126	0x3d401086	0.046890758
127	0x3ceee00a	0.029159565
128	0xbca15b35	-0.019696811
129	0xbd848f16	-0.06472604
130	0x3e01214f	0.12610362
131	0xbd7a7418	-0.061145872
132	0x3c49c980	0.012316108
133	0x3db998a7	0.09062319
134	0xbda06140	-0.07831049
135	0xbdfcd484	-0.12345222
136	0xbd54862a	-0.05188576
137	0xbc8dec61	-0.017324628
138	0xbda2cf6e	-0.0794972
139	0x3db22f52	0.08700432
140	0x3d4f71eb	0.05064575
141	0xbb7e8dc0	-0.0038841814
142	0xbe150aa5	-0.14554842
143	0xbdd530e5	-0.104097165
144	0x3de8401d	0.11340354
145	0x3e0a8be3	0.13529925
146	0xbdc58e26	-0.09646253
147	0x3d79e6f0	0.061011255
148	0x3e0a0166	0.13477096
149	0xbdeff083	-0.11715796
150	0xbd3070af	-0.043076213
151	0xbd0843ff	-0.03326797
152	0xbd9415f7	-0.07230752
153	0x3d525118	0.05134687
154	0xbcf7c128	-0.030243471
155	0x3d53e21b	0.051729303
156	0xbe371146	-0.17877683
157	0xbc3671b0	-0.011135504
158	0x3d6f00cb	0.058350366
159	0x3d154954	0.036446884
160	0xbd9d2dc6	-0.07674746
161	0xbdb851a8	-0.0899995
162	0xbd9ca1ee	-0.07648073
163	0xbdb7ec68	-0.08980638
164	0xbd29d4d0	-0.04146272
165	0x3d09bb01	0.033625606
166	0x3d5272df	0.05137908
167	0x3c9b3406	0.018945705
168	0xbdd283c6	-0.1027904
169	0xbe04b504	-0.12959677
170	0xbe08cd94	-0.13359672
171	0xbcd94381	-0.026521446
172	0xbd16e478	-0.03683898
173	0x3dd850a0	0.10562253
174	0x3cc5d2d8	0.02414839
175	0xbcdc7980	-0.026913404
176	0xbdf3265f	-0.11872553
177	0xbd9090c3	-0.07058861
178	0xbddd8c36	-0.10817759
179	0x3d65e91d	0.056130517
180	0x3e3dd863	0.18539576
181	0x3dbdcb0d	0.092672445
182	0x3d1742d6	0.036928974
183	0xbc740e2d	-0.014895958
184	0xbdd256f4	-0.10270491
185	0xbd093dd0	-0.033506215
186	0x3d3be410	0.045871794
187	0xbe3bf8e9	-0.1835667
188	0x3cd89439	0.026437866
189	0x3d9e293f	0.07722711
190	0xbc96fc83	-0.018430954
191	0xbcacd20b	-0.02109625
192	0x3d00166f	0.031271394
193	0xbe11bc9d	-0.14232107
194	0xbe1e4169	-0.1545464
195	0x3d80d05a	0.0628974
196	0xbdc2806b	-0.0949715
197	0x3df7604f	0.12078916
198	0x3da6b86c	0.081406444
199	0xbd91942c	-0.0710834
200	0x3d273f15	0.040831644
201	0x3db9ae04	0.09066394
202	0x3c0860d1	0.008323864
203	0xbdedcbc5	-0.116111316
204	0x3de84251	0.11340774
205	0x3cc96480	0.024584055
206	0xbc0d8d3e	-0.008639632
207	0x3d1c2eac	0.038130447
208	0x3dbdf1ee	0.0927466
209	0x3c3f4369	0.011673787
210	0xbc1aeed9	-0.00945636
211	0xbdfa7063	-0.12228467
212	0xbdd766aa	-0.105176285
213	0x3da7b482	0.08188726
214	0x3dd2e7a3	0.102980874
215	0x3d83a0bb	0.06427141
216	0x3ca865c7	0.020556344
217	0x3c9625c8	0.018328562
218	0x3d0c6738	0.034278125
219	0xbd36d458	-0.0446361
220	0x3e377563	0.17915873
221	0xbdda1b24	-0.10649708
222	0xbcd51752	-0.026012097
223	0x3c5ae181	0.013359428
224	0xbd2e73d5	-0.042590935
225	0xbcc99ad8	-0.024609968
226	0x3d4ce6de	0.05002486
227	0x3dcd095b	0.1001155
228	0xbc5f5b12	-0.013632553
229	0x3a25bd00	0.00063224137
230	0x3dc37854	0.09544435
231	0x3d359835	0.04433461
232	0x3c1ad907	0.009451157
233	0x3dd7b8a4	0.10533264
234	0xbd379a0c	-0.044824645
235	0xbe5e766c	-0.21724862
236	0xbb2d4057	-0.0026436055
237	0xbd467a12	-0.04845626
238	0x3e11aace	0.14225313
239	0x3dde688c	0.108597845
240	0x3c9b29a3	0.018940752
241	0xbe150acd	-0.14554901
242	0xbb8b9220	-0.004259363
243	0xbe20e4f3	-0.15712337
244	0xbe2f1d62	-0.17101052
245	0x3d83d75a	0.064375594
246	0x3c106591	0.008813278
247	0x3b466419	0.0030272065
248	0x3cdd2310	0.026994258
249	0xbd10b572	-0.03532929
250	0xbd939999	-0.07207031
251	0xbcdb1197	-0.026741786
252	0x3e26d02a	0.16290346
253	0x3d28a584	0.041173473
254	0xbdbcb8f4	-0.092149645
255	0xbd376fad	-0.044784237

encoder.weight_hh_l0 f4 [256, 64]
0	0xbe16565a	-0.14681378
1	0x3c8783aa	0.016542275
2	0xbe219bc6	-0.15782079
3	0x3d66fb2e	0.056391887
4	0xbe2e6339	-0.17030038
5	0xbe203c89	-0.15648092
6	0xbd8acf53	-0.06777825
7	0x3ded494f	0.11586248
8	0x3e022319	0.12708701
9	0x3e12f0f8	0.14349735
10	0x3d7e3f71	0.06207222
11	0xbe341585	-0.17586334
12	0xbe3d8c9f	-0.18510674
13	0x3d455d69	0.048184786
14	0x3e142eb7	0.14470945
15	0x3c248f7c	0.010043975
16	0x3daea78a	0.08528049
17	0x3e3163f0	0.1732328
18	0x3caf3091	0.021385463
19	0x3d9e62aa	0.077336624
20	0x3e539a95	0.20664437
21	0xbc93f48e	-0.018060949
22	0x3c8d8865	0.017276952
23	0xbde573f2	-0.112037554
24	0x3e1c35c3	0.15254883
25	0xbcca5101	-0.024696829
26	0x3d5a8ab7	0.053354945
27	0x3d27e1f5	0.040986974
28	0x3dce0fa7	0.10061579
29	0xbd3cbeb1	-0.046080295
30	0xbdd35430	-0.10318792
31	0x3e3459a8	0.17612326
32	0xbdbb0e25	-0.09133557
33	0xbdb26597	-0.08710783
34	0xbc03c13d	-0.008041677
35	0x3e05f756	0.13082632
36	0xbe0cbabd	-0.1374311
37	0xbaad137a	-0.0013204657
38	0x3d311c77	0.043240037
39	0xbcbcd948	-0.023052827
40	0x3d2e87a8	0.04260984
41	0xbc3a7c27	-0.011382139
42	0x3df7d604	0.12101367
43	0x3c8748c5	0.016514191
44	0x3df3a171	0.11896027
45	0x3d237658	0.039907783
46	0x39c3a158	0.0003731351
47	0xbd0584a1	-0.032597188
48	0x3d5c4b33	0.053782653
49	0x3d5685e3	0.052373778
50	0x3da2ef0f	0.07955753
51	0x3e39ca1b	0.18143503
52	0x3ac76093	0.0015211276
53	0x3b11bef9	0.0022239073
54	0x3c8781b8	0.016541347
55	0x3e525b45	0.20542629
56	0xbe08aa05	-0.13346107
57	0x3d0aa083	0.033844482
58	0xbe0b7df2	-0.13622263
59	0xbe254410	-0.16139245
60	0xbe3ac6c3	-0.18239884
61	0x3c32b731	0.010907934
62	0xbd436715	-0.04770573
63	0xbe58005c	-0.21093887
64	0xbd23553f	-0.03987622
65	0xbc5be6ab	-0.013421695
66	0xbe3a136a	-0.18171468
67	0x3ce2b956	0.027676266
68	0xbe04e9bb	-0.12979786
69	0x3b16b0f3	0.0022993654
70	0xbda0c704	-0.07850459
71	0xbda0669a	-0.0783207
72	0x3e3ca1ac	0.18421048
73	0x3da03793	0.078231
74	0xbd969bb0	-0.07353914
75	0x3e141717	0.14461933
76	0xbdc00302	-0.09375574
77	0xbd683290	-0.056688845
78	0x3bd6f0b5	0.0065594562
79	0x3d57d0fb	0.052689534
80	0xbd881782	-0.06645109
81	0x3d42084f	0.047371205
82	0xbe1639ea	-0.1467053
83	0xbda22532	-0.07917251
84	0x3d7ecc33	0.06220646
85	0x3d5ba7d2	0.053626843
86	0x3d8c4a64	0.068501264
87	0xbcfa88ad	-0.03058275
88	0xbdecbeac	-0.11559805
89	0x3c7d4ea8	0.015460648
90	0xbcc8c12e	-0.024506178
91	0x3d21bed7	0.03948864
92	0x3d2c0927	0.042000916
93	0xbd13526d	-0.03596728
94	0x3bc61dfd	0.0060460554
95	0xbe187d5a	-0.14891568
96	0x3cc0e675	0.02354739
97	0x3cc57df2	0.024107907
98	0xbdd87e06	-0.10570912
99	0xbe1379c0	-0.14401913
100	0x3ca3b41c	0.019983344
101	0x3cfa52b8	0.030557021
102	0x3cb8aa22	0.022542063
103	0x3cfb258d	0.030657554
104	0x3d09c20e	0.03363233
105	0x3ccba33c	0.02485811
106	0xbd4f2dff	-0.050580975
107	0xbd2a487f	-0.041573044
108	0x3da472ef	0.08029734
109	0x3cabe995	0.020985404
110	0xbd917926	-0.07103185
111	0x3c2203b5	0.009888579
112	0xbdfacdd8	-0.12246293
113	0xbbb74c04	-0.0055937786
114	0xbcdab5c3	-0.026697999
115	0x3dc0116c	0.09378323
116	0x3d4e8ef0	0.050429285
117	0xbc25e6d9	-0.010125839
118	0x3d6e9583	0.058248054
119	0xbe158782	-0.14602473
120	0xbd842660	-0.06452632
121	0x3d64d927	0.055871155
122	0xbd4b45c4	-0.04962708
123	0x3c96bc6f	0.018400399
124	0xbe1818db	-0.14853232
125	0xbd89cc1d	-0.06728385
126	0xbd5e3f46	-0.05425956
127	0xbe173b3a	-0.14768687
128	0xbd25e73f	-0.040503737
129	0x3d45bb45	0.048274297
130	0xbc386ec7	-0.01125688
131	0x3e32ba83	0.17453961
132	0xbd048c3d	-0.032360304
133	0xbdd3241e	-0.10309623
134	0xbdd4148e	-0.10355483
135	0x3e04adfd	0.12956996
136	0x3db83174	0.089938074
137	0xbc8a1fd2	-0.016860876
138	0xbd781728	-0.06056896
139	0xbd91bd03	-0.07116129
140	0x3c0eff68	0.008727886
141	0xbd5f285c	-0.05448185
142	0x3d09b166	0.033616446
143	0x3db835f5	0.089946665
144	0xbdad859f	-0.08472752
145	0x3cb4eb35	0.022084812
146	0x3d3deedb	0.04637037
147	0xbd838e38	-0.064236104
148	0x3daeb171	0.08529938
149	0xbe22e21d	-0.15906568
150	0xbe06cfa1	-0.13165142
151	0xbdb25ce4	-0.08709124
152	0x3dac62b5	0.08417264
153	0xbcc5ab9f	-0.024129687
154	0xbcd6d558	-0.026224777
155	0x3cc5ac55	0.024130026
156	0x3d89ea78	0.067341745
157	0xbbbb05f8	-0.0057074986
158	0xbdd7c69a	-0.10535927
159	0x3d657843	0.056022894
160	0x3da57244	0.08078435
161	0xbd945ef1	-0.07244671
162	0x3bb1593a	0.005412248
163	0xbc7742de	-0.015091626
164	0xbddd7586	-0.108134314
165	0xbd8215fd	-0.0635185
166	0xbd3d29ac	-0.04618232
167	0x3c00a594	0.007851977
168	0x3da41fe2	0.08013894
169	0x3b53889b	0.0032277468
170	0x3d90528e	0.07046996
171	0xbd868b11	-0.065694936
172	0x3c6367f4	0.013879765
173	0x3cc6270c	0.02418854
174	0xbd0ef057	-0.034897175
175	0x3cfb5b69	0.030683236
176	0xbe06e0cf	-0.13171695
177	0x3e25e47e	0.16200444
178	0x3a44f03b	0.0007512604
179	0xbd6275ae	-0.05528801
180	0xbd1d6088	-0.038422137
181	0x3cb6edf0	0.022330254
182	0x3d49bba2	0.049251206
183	0xbe21cdbf	-0.15801142
184	0xbde1eb01	-0.110311516
185	0xbdc5e685	-0.09663109
186	0x3d973fb3	0.073851965
187	0xbd4d2a27	-0.050089028
188	0x3cf076cd	0.029353524
189	0xbc9c3940	-0.019070268
190	0xbe04c7b2	-0.12966803
191	0xbd2533a7	-0.040332463
192	0xbe1049d0	-0.14090657
193	0x3da8d3b9	0.08243508
194	0xbe0422c4	-0.12903887
195	0x3cffe835	0.031238655
196	0x3d433aa2	0.04766334
197	0xbe107fd8	-0.14111269
198	0xbdac9d4a	-0.08428438
199	0xbdc6523b	-0.09683653
200	0x3cb2b464	0.021814533
201	0x3dbac6af	0.09119927
202	0xbd6102dc	-0.054934368
203	0xbdf10522	-0.11768557
204	0xbe108855	-0.14114507
205	0xbe442470	-0.19154525
206	0x3e006538	0.12538612
207	0xbd9dce0b	-0.07705315
208	0x3d66b9e0	0.056329608
209	0x3e18c77e	0.1491985
210	0xbc85455b	-0.016268423
211	0xbda3cf8d	-0.079985715
212	0x3d2c6945	0.04209258
213	0x3d220abf	0.03956103
214	0xbdbc2c1d	-0.091881014
215	0xbe02f113	-0.12787275
216	0x3e2b1a04	0.16709143
217	0x3e0b8d0e	0.13628027
218	0x3bb6282e	0.005558989
219	0xbdcb0133	-0.09912338
220	0x3c183a28	0.009291209
221	0x3e088122	0.1333051
222	0xbe237c77	-0.15965448
223	0x3caeebc0	0.021352649
224	0x3e0ce62c	0.13759679
225	0xbc3cba7c	-0.011519071
226	0x3de2da95	0.110768475
227	0x3db006fb	0.085950814
228	0xbd3bffb2	-0.045898147
229	0xbd57900e	-0.052627616
230	0xbd34d8f4	-0.044152215
231	0x3d7a64df	0.061131354
232	0xbbfca666	-0.007710266
233	0x3d6cf4b1	0.057850543
234	0x3d91051f	0.07081055
235	0xbd9d802d	-0.07690463
236	0x3d54da13	0.051965784
237	0xbcf8b790	-0.030360967
238	0x3c1bf44b	0.009518693
239	0x3d230c31	0.03980655
240	0x3d44db5d	0.048060764
241	0x3dcbd03e	0.099518284
242	0xbd5eff6f	-0.05444282
243	0x3dfb553a	0.12272115
244	0x3e0f7bc2	0.14012054
245	0xbdaf5245	-0.085606135
246	0xbdde05e6	-0.10840969
247	0x3e0c9096	0.1372703
248	0xbd15c2af	-0.036562618
249	0xbccde34d	-0.0251328
250	0xbddd2eef	-0.107999675
251	0xbdfb046a	-0.12256701
252	0xb9d089eb	-0.00039775608
253	0x3ddef0fd	0.108858086
254	0x3cde36e9	0.027125793
255	0xbe2ef74e	-0.17086527

encoder.bias_ih_l0 f4 [256]
0	0x3ce2711e	0.02764183
1	0x3c95cf9b	0.01828747
2	0x3e5439bc	0.20725149
3	0x3e535452	0.20637634
4	0x3d906de7	0.07052212
5	0x3e063421	0.13105823
6	0x3bedfcf6	0.0072628213
7	0x3e121701	0.14266588
8	0x3c950b50	0.01819387
9	0x3e008752	0.1255162
10	0x3bae1327	0.0053123417
11	0x3d0db162	0.034592994
12	0x3e2821b9	0.16419114
13	0x3ba1d9d9	0.0049392995
14	0x3dd0b9f8	0.10191721
15	0x3e391ddc	0.18077797
16	0x3dbb89d3	0.09157147
17	0x3e095d71	0.13414551
18	0x3e052968	0.13004076
19	0x3d8694e2	0.06571366
20	0x3df8fba6	0.12157373
21	0x3e0b9447	0.13630782
22	0x3e301d6b	0.17198722
23	0x3dfa3741	0.1221757
24	0x3e660a76	0.22464928
25	0x3e7a515c	0.24445099
26	0x3d36e1c5	0.044648904
27	0x3e488848	0.19583237
28	0x3e555670	0.20833755
29	0x3de71f72	0.112852946
30	0x3bce61e8	0.0062982924
31	0x3e408c91	0.18803622
32	0x3cd57516	0.026056807
33	0x3e28b21e	0.16474196
34	0x3cc28a6f	0.02374765
35	0x3d64ba1a	0.055841543
36	0x3e39868a	0.18117729
37	0x3e14db73	0.14536838
38	0x3d9cd8cc	0.07658538
39	0x3e21f8cb	0.15817563
40	0x3cfc9f4a	0.030837674
41	0x3d7f7276	0.062365018
42	0x3d66fdd4	0.056394413
43	0x3e2200bb	0.15820591
44	0x3e3ae4a8	0.18251288
45	0x3e3047eb	0.17214935
46	0x3d3b578a	0.04573778
47	0x3e263dea	0.16234556
48	0x3e2c5444	0.1682902
49	0x3e266a3c	0.16251463
50	0x3db0f917	0.0864126
51	0x3d2e367d	0.042532433
52	0x3e69f418	0.2284702
53	0x3e32df6e	0.17468044
54	0x3e2ffb0f	0.17185615
55	0xb925e1f1	-0.00015819796
56	0x3dc9c3ac	0.098517746
57	0x3b8c8c24	0.004289167
58	0x3d9ea1d5	0.07745711
59	0x3e25c225	0.16187342
60	0x3d290ae2	0.041270144
61	0xbc2ecff5	-0.010669698
62	0xbc10f904	-0.008848432
63	0x3b730e1e	0.0037087272
64	0x3c60e7fb	0.013727183
65	0x3d051a38	0.032495707
66	0x3e144fc5	0.14483555
67	0xbca585db	-0.020205429
68	0xbae5669c	-0.0017501893
69	0x3dae8a52	0.08522476
70	0x3c90b24a	0.01766314
71	0x3d8b4e00	0.06801987
72	0x3c8b1ad3	0.016980564
73	0x3bcfbd96	0.006339739
74	0xbd1420f8	-0.036164254
75	0x3dd6dd1b	0.10491391
76	0x3cbc983a	0.023021806
77	0x3de68089	0.11254985
78	0x3e229c74	0.15879995
79	0x3e19e510	0.15028787
80	0x3d8a6b27	0.06758719
81	0x3dc7ab18	0.097494304
82	0x3c4e3989	0.01258696
83	0x3dfb3676	0.12266247
84	0x3df532fa	0.11972614
85	0xbd0aa1f9	-0.033845875
86	0x3de2187f	0.110398285
87	0x3d8c24f4	0.06842986
88	0x3d291807	0.04128268
89	0x3e3e40d3	0.18579416
90	0x3e14085a	0.14456311
91	0x3dd3bfd7	0.10339325
92	0x3dd92731	0.10603178
93	0x3e2545ae	0.16139862
94	0xbd183072	-0.037155576
95	0x3e1b26f0	0.15151572
96	0x3d3c5fa9	0.045989666
97	0x3e1563c9	0.14588846
98	0x3e0e4f1a	0.13897362
99	0x3d078e7a	0.03309486
100	0x3e2aee9c	0.16692585
101	0x3d9998df	0.07499861
102	0x3dbe497d	0.092913605
103	0xbd69c991	-0.057076994
104	0xbd99d62e	-0.07511555
105	0xbcdfd23f	-0.027321933
106	0x3e2619cd	0.1622078
107	0x3db927c0	0.09040785
108	0xba866026	-0.0010252043
109	0x3e32ce25	0.1746145
110	0x3b9decfd	0.004819511
111	0x3d752e1e	0.059858434
112	0xbcc1ae1f	-0.023642598
113	0x3aeda493	0.0018130712
114	0x3dd8179a	0.10551377
115	0x3c18af4e	0.00931914
116	0xbda694bd	-0.08133838
117	0x3dbe4d76	0.09292118
118	0xbd5f452b	-0.054509323
119	0x3d8aa2a3	0.06769302
120	0xbdad1b17	-0.084524326
121	0xbc87b656	-0.016566437
122	0xbae82561	-0.0017711335
123	0x3e10fd6d	0.14159174
124	0x3d3b6a2a	0.045755543
125	0x3c56b007	0.013103492
126	0x3e0a8066	0.13525543
127	0xbd1197d8	-0.0355452
128	0xbe40b3d2	-0.18818596
129	0x3dcf8c56	0.10134189
130	0xbbf63ec0	-0.0075148046
131	0x3e19fb1c	0.15037197
132	0xbe66e789	-0.22549261
133	0xbdae0468	-0.08496934
134	0x3bbf76f1	0.0058430363
135	0xbd0d893a	-0.034554698
136	0x3e34a60f	0.17641471
137	0x3e462cf2	0.19353083
138	0xbd42b2c5	-0.04753377
139	0xbe50d4cd	-0.20393677
140	0xbe2a7f5a	-0.16650143
141	0x3b792fe7	0.0038022937
142	0x3d45cf01	0.048293117
143	0xbe302d6a	-0.17204824
144	0x3d96cb8e	0.07363044
145	0x3e45a158	0.19299829
146	0xbd5f7289	-0.05455259
147	0x3dccf1e7	0.10007077
148	0x3e01c9cc	0.12674636
149	0xbe36feaa	-0.17870584
150	0xbcde5198	-0.027138516
151	0xbd8d0a05	-0.06886677
152	0x3e52853b	0.20558636
153	0x3e35b51d	0.1774487
154	0xbca17974	-0.019711234
155	0xbdbea4b6	-0.0930876
156	0x3e430861	0.19046165
157	0x3e607318	0.21918905
158	0xbda39924	-0.07988194
159	0x3df4f6f0	0.11961162
160	0x3df86506	0.12128644
161	0x3db9e780	0.09077358
162	0xbc80516f	-0.01566383
163	0x3dace1e8	0.08441526
164	0xbe47b5a3	-0.19502883
165	0xbe68cbc5	-0.22733982
166	0xbd31a89d	-0.043373693
167	0xbd337118	-0.043809026
168	0xbdff4ff7	-0.12466424
169	0xbe11b29d	-0.14228292
170	0x3e431906	0.19052514
171	0xbe1f2a22	-0.15543416
172	0x3dcd4fb7	0.1002497
173	0x3e2d27c5	0.16909702
174	0x3e52474e	0.20535013
175	0xbd80d764	-0.062910825
176	0xbc8a1c3e	-0.01685917
177	0x3e72f622	0.23726705
178	0xbe04b37d	-0.12959094
179	0x3e59dce0	0.21275663
180	0x3d83b1e9	0.06430418
181	0xbdf4aa2d	-0.11946521
182	0xbcafc948	-0.021458283
183	0x3db83edc	0.089963645
184	0xbdfa7b20	-0.122305155
185	0xbe33942b	-0.1753699
186	0xbe28e759	-0.16494502
187	0xbe3ab699	-0.18233718
188	0xbe7d0a63	-0.24710993
189	0xbdd52968	-0.10408288
190	0xbe219f0e	-0.15783331
191	0xbe642355	-0.22279103
192	0xbbf64690	-0.007515736
193	0x3d1afab4	0.037836745
194	0xbc81d483	-0.015848404
195	0x3e722db2	0.23650244
196	0x3d082988	0.033242732
197	0x3d2bd7b0	0.041953743
198	0x3c7717cc	0.015081357
199	0x3e4e382e	0.20138618
200	0x3e05a832	0.13052443
201	0x3e2139a3	0.15744643
202	0x3d91e9ca	0.0712467
203	0x3dccebb7	0.100058965
204	0x3d06a603	0.032873165
205	0x3e25ce54	0.16191989
206	0x3d4cd15e	0.050004356
207	0x3d73c051	0.05950958
208	0x3e06166c	0.13094491
209	0x3e44b2f9	0.19208898
210	0x3dded0b3	0.1087965
211	0x3df0062f	0.117199294
212	0x3e0d4184	0.13794523
213	0x3e0fd8b7	0.14047514
214	0x3e21c0e5	0.1579624
215	0x3db408f2	0.08790769
216	0x3e326b1b	0.1742367
217	0x3e1b8224	0.15186363
218	0x3d100991	0.035165373
219	0x3dfd0cb0	0.123559356
220	0x3e1a0301	0.15040208
221	0x3dfbf09d	0.12301753
222	0x3bfa89f9	0.007645842
223	0x3e3559ba	0.17710009
224	0x3c240854	0.010011751
225	0x3df47218	0.11935824
226	0x3e227448	0.1586467
227	0x3bd2086e	0.0064096963
228	0x3dd574b8	0.10422653
229	0xbcaa76c1	-0.02080858
230	0x3d9f5f05	0.077817954
231	0x3d6ea842	0.058265932
232	0x3e618ecb	0.22027127
233	0xbcf70a94	-0.030156411
234	0x3dd965bf	0.1061511
235	0x3db49ce9	0.08818991
236	0x3e51defd	0.2049522
237	0x3b9c027c	0.0047610383
238	0x3e61478c	0.21999949
239	0x3e00a95f	0.1256461
240	0x3e4c5057	0.19952522
241	0x3e0170d8	0.12640703
242	0x3d900bf7	0.07033532
243	0x3e30e08b	0.17273156
244	0x3e3993bf	0.18122767
245	0x3e5bded2	0.21471718
246	0x3e0efd6e	0.13963863
247	0x3dac1ad2	0.08403553
248	0x3e31de82	0.17370036
249	0xbc7a63e8	-0.015282609
250	0x3e341f8f	0.17590164
251	0x3e4fce8a	0.20293632
252	0x3d95b959	0.07310743
253	0x3e5496cc	0.2076065
254	0x3d8acde7	0.06777554
255	0x3d8decb2	0.06929912

encoder.bias_hh_l0 f4 [256]
0	0x3e5ff917	0.21872364
1	0x3d95fa74	0.07323161
2	0x3c8af6af	0.016963331
3	0x3e4bbc4d	0.1989605
4	0x3e377478	0.17915523
5	0x3d24308d	0.040085364
6	0x3b557ffa	0.00325775
7	0x3e17288a	0.14761558
8	0x3e30424f	0.17212795
9	0x3d841fd1	0.06451381
10	0x3e2cca17	0.16873966
11	0x3e50755b	0.20357268
12	0x3e1c4dbb	0.15264027
13	0x3dd00251	0.10156692
14	0x38f15b7f	0.00011508818
15	0x3e326ed8	0.17425096
16	0x3dd87039	0.1056828
17	0x3da3e4e7	0.08002644
18	0x3dbdf50c	0.092752546
19	0x3e171d95	0.14757378
20	0x3da0d4a5	0.07853059
21	0x3e529d40	0.20567799
22	0x3e373244	0.17890269
23	0x3e4b6bbd	0.19865318
24	0x3dd08cfd	0.101831414
25	0x3e5c16eb	0.21493118
26	0x3da42f48	0.08016831
27	0x3d8c6e34	0.06856957
28	0x3e041943	0.12900262
29	0x3e23a394	0.15980369
30	0x3e62dbc9	0.22154154
31	0xbc97b043	-0.018516665
32	0x3e234b70	0.15946746
33	0xbc6e3ed4	-0.014541347
34	0x3e0d30bf	0.13788126
35	0x3d90653a	0.070505574
36	0x3db4252d	0.08796153
37	0x3dad90d9	0.08474893
38	0xbd23d866	-0.040001296
39	0x3d330eb3	0.04371519
40	0x3de6f178	0.11276525
41	0x3e3ee1bf	0.18640803
42	0x3db1432e	0.08655392
43	0x3d9cd090	0.07656968
44	0x3e324795	0.17410119
45	0x3e364818	0.17800939
46	0x3c9da035	0.019241432
47	0x3dd6e53f	0.10492944
48	0x3dcf2362	0.101141706
49	0x3e30f8a7	0.17282353
50	0x3d6fd701	0.058554653
51	0x3cc1bde3	0.023650115
52	0x3decb506	0.11557965
53	0x3e615f94	0.22009116
54	0x3cec38c3	0.02883566
55	0x3e3c9cc5	0.18419178
56	0x3c90445b	0.01761072
57	0x3da999e9	0.08281309
58	0x3e06f121	0.13177921
59	0x3cb45f91	0.022018226
60	0x3d78ef0d	0.06077485
61	0x3e43961b	0.1910023
62	0x3e4b692d	0.1986434
63	0x3e50254b	0.20326726
64	0x3d8b99da	0.06816454
65	0xbd7017d9	-0.058616493
66	0x3d5394c8	0.05165556
67	0x3dc8c4e3	0.09803178
68	0x3da7b80e	0.081894025
69	0x37f65d5b	2.9368957e-05
70	0xbd56d8cd	-0.05245285
71	0x3d4f871d	0.050665963
72	0xbd0be92d	-0.03415792
73	0x3d9165d3	0.070994996
74	0x3daf38bf	0.08555745
75	0x3e0d2859	0.13784923
76	0x3d6e360c	0.058157012
77	0x3e1a1cae	0.15050003
78	0x3ca1cc7c	0.019750826
79	0xbc0b4e12	-0.0085025
80	0x3d9f1ff3	0.07769766
81	0x3ddfd2b8	0.10928863
82	0xbd9b4507	-0.07581525
83	0xbc694ee3	-0.014239999
84	0x3dfa8488	0.122323096
85	0x3d9b08e4	0.07570055
86	0x3dd46a3d	0.10371826
87	0x3c0f8501	0.008759738
88	0xbd0dad7d	-0.03458928
89	0xbd11175f	-0.03542268
90	0x3df64764	0.120253354
91	0x3cb345e1	0.021883907
92	0x3e24c296	0.16089854
93	0x3d9a6623	0.07539012
94	0x3cd07757	0.02544753
95	0x3ccc178c	0.024913572
96	0x3dd9b6f9	0.106306024
97	0x3e122b15	0.14274247
98	0xbd27748d	-0.040882636
99	0x3b99db86	0.0046953587
100	0x3beb54c7	0.007181737
101	0x3de4cc69	0.11171801
102	0x3d4ba4ce	0.049717717
103	0x3dce7d32	0.10082473
104	0x3e0e561d	0.13900037
105	0xbd24798f	-0.04015499
106	0xbcce8dda	-0.025214124
107	0x3d46787d	0.04845475
108	0xbd067562	-0.03282679
109	0x3e208d8d	0.15678997
110	0x3df766f9	0.12080187
111	0x3ca500c7	0.020141972
112	0x3dd0de2c	0.10198626
113	0xbcaa2f3a	-0.020774473
114	0x3d8d7f8c	0.06909093
115	0x3d7502a7	0.059816983
116	0xbd5b76a9	-0.05357996
117	0xbd294d9c	-0.04133378
118	0x3e2a1a6a	0.16611639
119	0xbd08dc6d	-0.03341334
120	0x3d2839db	0.0410708
121	0x3c88ab16	0.016683143
122	0x3b788ac8	0.0037924517
123	0x3dab383a	0.08360334
124	0x3e1d94f1	0.15388848
125	0xbda5f710	-0.08103764
126	0xbd9a79ee	-0.075427875
127	0x3e2b2ecd	0.16717072
128	0xbd5872ed	-0.052843977
129	0x3e239e20	0.15978289
130	0xbe4f97e2	-0.20272782
131	0x3d86cf15	0.065824665
132	0xbe1fe7e1	-0.15615799
133	0xbd9a88f9	-0.07545657
134	0xbc037b4a	-0.008025
135	0x3dfe33da	0.12412234
136	0x3d2ae3cc	0.04172115
137	0x3e1fd21f	0.15607499
138	0xbe23715a	-0.15961209
139	0xbd4d1ebb	-0.050078135
140	0xbe52f239	-0.20600213
141	0xbdd6a9d2	-0.104816094
142	0x3e4ea7d9	0.20181216
143	0x3a6c56b4	0.00090156053
144	0xbdbaa40b	-0.0911332
145	0x3e2eba2f	0.17063211
146	0xbe607c57	-0.21922432
147	0x3d9912b1	0.07474268
148	0x3dd87ddb	0.1057088
149	0xbe6c5fde	-0.23083445
150	0x3db4359e	0.08799289
151	0xbe45de04	-0.19322973
152	0x3d910873	0.0708169
153	0x3e53631c	0.20643276
154	0xbe1217e5	-0.14266928
155	0xbddcb68c	-0.107770056
156	0x3e4bec01	0.19914247
157	0x3d8c4ecc	0.06850967
158	0xbe4ac08d	-0.19800015
159	0xbdcb555c	-0.099283904
160	0x3d9bd487	0.07608896
161	0xbdcfc856	-0.10145633
162	0x3e29ba4f	0.16574977
163	0xbd999a61	-0.075001486
164	0xbe34b7e5	-0.17648275
165	0xbdbf7550	-0.093485475
166	0xbe091b77	-0.13389383
167	0x3c92cc3b	0.01791965
168	0xbcc69e3b	-0.024245372
169	0xbc4fef46	-0.012691325
170	0x3e142c78	0.14470088
171	0xbd373255	-0.044725735
172	0x3d218dd8	0.039441913
173	0x3dba3edd	0.090940215
174	0x3d6b2b19	0.057414148
175	0xbe3416e9	-0.17586865
176	0xbde4cb32	-0.11171569
177	0x3e5be971	0.2147577
178	0x3c1384fd	0.009003875
179	0x3daef68e	0.0854312
180	0x3e441fd0	0.1915276
181	0xbe78a7b5	-0.24282725
182	0xbe7b2dae	-0.24529144
183	0x3dd93d86	0.10607438
184	0xbcd50b4f	-0.026006369
185	0xbdefc86e	-0.11708151
186	0xbe650a16	-0.22367129
187	0xbe24aadb	-0.16080801
188	0xbdd76bf3	-0.105186366
189	0xbd94df55	-0.0726916
190	0xbe4afe05	-0.19823463
191	0xbe5d1b4a	-0.21592441
192	0x3dcd1d7d	0.1001539
193	0x3df7fea1	0.121091135
194	0xbd0bcd50	-0.034131348
195	0x3e5bec77	0.21476923
196	0x3d3e33d7	0.046436157
197	0x3df95b05	0.12175564
198	0x3e40c9f9	0.18827046
199	0x3e46131d	0.19343229
200	0x3e3266d4	0.17422038
201	0x3e631f4d	0.22179909
202	0x3d627826	0.055290364
203	0x3ddeb2f4	0.10873976
204	0x3dbad3fa	0.091224626
205	0x3dd136e4	0.10215548
206	0x3c6b4179	0.014358872
207	0x3e0b1c14	0.1358493
208	0x3c9468e0	0.018116415
209	0x3e1da398	0.15394437
210	0x3ce6f639	0.02819358
211	0x3d8a3db0	0.06750047
212	0x3d205c4e	0.03915053
213	0x3e123b29	0.1428038
214	0x39a08bc0	0.000306217
215	0x3de5cfa6	0.112212464
216	0xbb3c5513	-0.0028737232
217	0x3d814a1a	0.06312962
218	0x3e7d75f1	0.24752022
219	0x3e16e8fb	0.14737312
220	0x3e6795d7	0.22615753
221	0x3bdfd9cc	0.0068313833
222	0x3e409b68	0.18809283
223	0x3d0c40b2	0.034241386
224	0x3e361e11	0.17784907
225	0x3e3aac80	0.18229866
226	0x3dc814bb	0.09769579
227	0x3df02b3b	0.117269956
228	0x3d861a39	0.0654797
229	0x3ca66b34	0.02031479
230	0x3e0df1f0	0.13861823
231	0x3e275cf6	0.16344056
232	0x3d6c5cb7	0.057705607
233	0xbbe1cf52	-0.0068911696
234	0x3e04cea0	0.12969446
235	0x3dae0877	0.08497708
236	0x3e45cf3c	0.19317335
237	0x3e40217a	0.1876277
238	0x3e656c67	0.22404633
239	0x3e6c2e58	0.23064554
240	0x3d3e0d2b	0.046399277
241	0x3e3cc9da	0.18436375
242	0x3e2e87d7	0.17044006
243	0x3e2e3792	0.17013386
244	0x3e0d306a	0.13788
245	0xbaad6c19	-0.0013231068
246	0x3df156c5	0.11784128
247	0x3db1edbc	0.08687922
248	0x3d8f0656	0.0698363
249	0x3c20ce6e	0.009814842
250	0x3db8374c	0.08994922
251	0x3e5e42c9	0.21705164
252	0x3e04d982	0.12973598
253	0x3e4ace6f	0.1980531
254	0x3d1c8aeb	0.03821842
255	0x3e684c8e	0.22685453

decoder.weight_ih_l0 f4 [176, 64]
0	0xbe02d534	-0.12776643
1	0x3e063254	0.13105136
2	0xbe015fc3	-0.12634186
3	0xbbcbdf94	-0.006221721
4	0x3d778d5d	0.06043755
5	0xbdc43c20	-0.095817804
6	0x3e147a80	0.14499855
7	0x3dc0bca3	0.094109796
8	0x3d6207b6	0.055183135
9	0x3dbaeb3e	0.091269
10	0xbd9ba366	-0.07599525
11	0xbde2d7fb	-0.11076351
12	0xbdf9cc47	-0.12197166
13	0xbd8d0ed2	-0.068875924
14	0xbc80de5c	-0.01573103
15	0xbd4425dc	-0.047887668
16	0xbd9c9480	-0.076455116
17	0x3da2440f	0.079231374
18	0x3d9f084f	0.077652566
19	0x3dfa1a57	0.12212055
20	0x3d763775	0.06011148
21	0xbe3ef1fe	-0.18647
22	0xbda1677f	-0.078810684
23	0xbddcf826	-0.10789518
24	0x3e59baca	0.2126266
25	0x3e3221c9	0.173957
26	0x3e01c989	0.12674536
27	0xbe374b5a	-0.17899838
28	0x3e09510a	0.1340982
29	0x3de82ef0	0.113370776
30	0xbd0fbf73	-0.03509469
31	0x3d90c8aa	0.07069524
32	0x3d7c0e4d	0.061537076
33	0xbd36c3c2	-0.044620283
34	0x3dfb7571	0.122782595
35	0xbddaaaab	-0.106770836
36	0xbad70aa9	-0.0016406375
37	0x3cca6300	0.02470541
38	0xbdb6118b	-0.08890065
39	0xbd8c0313	-0.06836524
40	0xbdba0ca1	-0.0908444
41	0xbdf8c003	-0.12145998
42	0x3d8799e0	0.06621146
43	0xbe536a9c	-0.20646137
44	0x3e2d3c85	0.16917618
45	0xbd99de6e	-0.07513128
46	0x3e2b0ccb	0.16704099
47	0xbe556080	-0.20837593
48	0xbe338d7d	-0.17534442
49	0x3e51ba30	0.20481181
50	0xbd5b7fc4	-0.053588644
51	0xbd8915a6	-0.06693582
52	0x3e160b1c	0.14652675
53	0xbc37f40b	-0.011227618
54	0x3d36a645	0.04459216
55	0x3e54797d	0.20749469
56	0xbd797331	-0.06090087
57	0xbd1661fc	-0.03671454
58	0xbe15fdbd	-0.14647575
59	0xbd9e559a	-0.07731171
60	0xbe0af61a	-0.13570443
61	0xbdce0a5f	-0.10060572
62	0xbd7524ff	-0.059849735
63	0x3bbfaeb8	0.0058496855
64	0x3dc0f807	0.094223075
65	0xbc5352fd	-0.012898204
66	0x3d58bd1b	0.05291472
67	0xbcc36a38	-0.02385436
68	0xbdb47323	-0.08811023
69	0xbd8eaa7c	-0.06966111
70	0xbdb977de	-0.09056066
71	0xbca124dc	-0.019670896
72	0x3d7d29f9	0.061807606
73	0x3e6505d2	0.22365502
74	0x3d88c230	0.06677663
75	0xbd855353	-0.065100335
76	0x3cd59f40	0.026076913
77	0xbd7c5637	-0.06160566
78	0x3e472556	0.19447836
79	0xbb9bdae5	-0.004756319
80	0xbba00210	-0.0048830584
81	0xbce1999d	-0.027539069
82	0xbddb5aae	-0.10710655
83	0xbd6d8793	-0.05799062
84	0x3e1dd273	0.15412311
85	0xbcc2d025	-0.023780892
86	0x3d74f4a0	0.059803605
87	0xbe6720aa	-0.22571054
88	0x3d59a80e	0.053138785
89	0x3e812857	0.2522609
90	0xbbd901d2	-0.0066225315
91	0xbb18c2d3	-0.0023309484
92	0x3d7bb8ca	0.061455525
93	0xba803730	-0.0009782072
94	0xbe72356e	-0.23653194
95	0xbced6433	-0.028978443
96	0x3cca7750	0.024715096
97	0xbd77a528	-0.06046024
98	0x3dd06aa4	0.1017659
99	0xbd7a02c4	-0.061037794
100	0xbdb719cf	-0.089404695
101	0xbdb9cd0c	-0.09072313
102	0xbca18463	-0.019716447
103	0xbdbd7597	-0.09250944
104	0xbdb1a353	-0.0867373
105	0x3cd0b418	0.0254765
106	0x3d84bc14	0.064811856
107	0x3b9a52e4	0.0047095884
108	0xbd4cbdf5	-0.049985845
109	0xbc22ad19	-0.009928965
110	0xbc5c8cdf	-0.013461321
111	0xbe1bcff8	-0.15216053
112	0xbe3f6fa5	-0.18694933
113	0x3e319c69	0.17344822
114	0x3d9d6a5d	0.07686303
115	0x3d8f3d91	0.06994165
116	0x3e5ca4cc	0.2154724
117	0xbdd48a42	-0.10377933
118	0xbe3cac92	-0.18425205
119	0x3e2d2323	0.16907935
120	0xbd90db10	-0.07073033
121	0xbe04a8e8	-0.12955058
122	0x3bebe416	0.007198821
123	0xbe144fec	-0.14483613
124	0xbe0f607d	-0.14001651
125	0xbcbc1f8c	-0.022964261
126	0xbdcfb543	-0.10141995
127	0xbd50da09	-0.050989185
128	0x3e04a905	0.12955101
129	0xbc9f9b1a	-0.019483138
130	0xbc39ca25	-0.011339699
131	0x3ccfc986	0.025364649
132	0xbdbbf02a	-0.09176667
133	0x3c83d247	0.016091479
134	0x3dd333e5	0.103126325
135	0x3cf5ce41	0.030005576
136	0x3e7c6d09	0.24650969
137	0x3dfba22b	0.122867905
138	0x3c9ca62b	0.019122204
139	0x3c1dd4f3	0.009633291
140	0xbd1cc2e1	-0.03827179
141	0xbda8f9d2	-0.082507744
142	0x3e43256d	0.19057246
143	0x3d0db485	0.034595985
144	0x3e30eea1	0.1727853
145	0xbcf548e6	-0.029941987
146	0xbd0c423a	-0.034242846
147	0xbd3a5b1a	-0.045497037
148	0x3e4182e3	0.18897586
149	0xbe006d54	-0.12541705
150	0xbdb4bf43	-0.08825543
151	0x3cc23788	0.02370812
152	0x3ca713f9	0.020395266
153	0x3d115aec	0.0354871
154	0x3df293cf	0.118445985
155	0x3cefba5c	0.029263668
156	0x3cb40bb0	0.02197823
157	0x3d66972c	0.056296512
158	0xbd9b97a9	-0.07597286
159	0xbda08186	-0.07837205
160	0xbe22f0a6	-0.15912113
161	0xbd63deac	-0.05563228
162	0x3dc6ff0c	0.09716615
163	0xbe0cbbc2	-0.13743499
164	0xbd5bba35	-0.053644378
165	0xbe5b0032	-0.21386793
166	0x3d201a05	0.039087314
167	0xbc95794b	-0.018246314
168	0x3d903ef7	0.070432596
169	0xbdbf8768	-0.093519986
170	0x3ca8cfa1	0.020606818
171	0xbe3621f2	-0.17786387
172	0x3c98d4c8	0.01865615
173	0x3d91ac45	0.07112936
174	0x3e354f1c	0.17705959
175	0x3c50c719	0.012742781
176	0x3d04d1f7	0.0324268
177	0x3c200ae2	0.00976822
178	0x3da45b99	0.08025283
179	0xbb734e52	-0.003712554
180	0xbe2b6a2c	-0.1673972
181	0x3cbeec08	0.023305908
182	0xbe32b44e	-0.17451593
183	0xba33fb06	-0.00068657135
184	0xbe30e9b4	-0.1727665
185	0xbd935b35	-0.07195131
186	0xbda296b3	-0.079389
187	0xbe4602b6	-0.19336972
188	0x3d48eac0	0.049052
189	0xbe75bab1	-0.23996998
190	0x3dc6a4ee	0.096994266
191	0x3c2957f9	0.010335916
192	0x3d8cbba3	0.06871726
193	0x3da4face	0.0805565
194	0xbd8e8fa7	-0.06960993
195	0xbdddfd25	-0.10839299
196	0x3d78390c	0.06060128
197	0xbd56e48a	-0.052464046
198	0xbe09ecb4	-0.13469201
199	0x3d97b2a8	0.07407123
200	0xbd7979d4	-0.0609072
201	0xbe19cad8	-0.15018785
202	0x3e2b5f9f	0.16735695
203	0xbd30f955	-0.04320653
204	0xbdc893b9	-0.09793801
205	0xbc4471b7	-0.011990002
206	0x3dada178	0.08478063
207	0xbbb03d06	-0.0053783683
208	0xbd864007	-0.06555181
209	0x3d476c66	0.04868736
210	0x3e5a69b2	0.21329382
211	0x3d2837a9	0.041068707
212	0xbe28ecd2	-0.1649659
213	0x3d6ff7d8	0.05858597
214	0xbda7513d	-0.08169792
215	0x3d8674ee	0.06565271
216	0xbde74472	-0.11292352
217	0x3db36da4	0.08761147
218	0x3d9373b6	0.071998045
219	0x3dffab83	0.12483885
220	0xbe6d27b2	-0.23159674
221	0xbe0bae6c	-0.13640755
222	0x3d4c8830	0.049934566
223	0x3d64ea0b	0.055887263
224	0x3dab0771	0.08351029
225	0x3db59ebf	0.08868169
226	0xbc901b30	-0.017591089
227	0x3d3e8bfd	0.046520222
228	0xbd753973	-0.05986924
229	0xbd73cab4	-0.059519485
230	0x3d265f30	0.04061812
231	0x3daaaa29	0.08333237
232	0xbcd1d4c7	-0.025614155
233	0x3d617108	0.055039436
234	0x3de67d8a	0.112544134
235	0x3e0e317e	0.13886067
236	0x3d3956c4	0.04524876
237	0xbd882213	-0.06647124
238	0xbe31e09a	-0.17370835
239	0xbc8fc18c	-0.017548345
240	0x3e3bd507	0.18342982
241	0xbd96da8d	-0.07365904
242	0xbda5acaf	-0.080895774
243	0x3e2bd9f9	0.16782369
244	0xbe5fda36	-0.21860585
245	0x3ca89242	0.020577554
246	0xbde7c513	-0.11316886
247	0x3d631f8b	0.055450004
248	0xbdcc2538	-0.099680364
249	0x3e0b7b29	0.136212
250	0x3c29ea1f	0.01037076
251	0xbe235889	-0.15951742
252	0x3e0e1482	0.1387501
253	0x3e03e66c	0.12880868
254	0x3d7555e3	0.05989636
255	0x3d975d09	0.07390792

decoder.weight_hh_l0 f4 [176, 44]
0	0xbe6d0faa	-0.23150507
1	0x3de4ec27	0.11177855
2	0x3cc3dbde	0.023908552
3	0x3d5c81e8	0.053834826
4	0x3cd0ad25	0.025473187
5	0xbceb1897	-0.028698249
6	0x3dc1b8e3	0.094590925
7	0x3c30e38b	0.010796438
8	0x3e038e15	0.12847169
9	0x3dfeaa48	0.12434822
10	0xbe137e32	-0.14403608
11	0x3dedd68a	0.11613186
12	0xbe272bbc	-0.16325277
13	0xbe004dc3	-0.12529664
14	0x3ca71faf	0.02040085
15	0xbd0a1229	-0.033708725
16	0xbc3ba2a2	-0.011452349
17	0xbe1d5918	-0.15366018
18	0x3ca4b7b0	0.02010712
19	0x3deeb531	0.11655653
20	0xbd5232a8	-0.05131784
21	0x3cc36614	0.023852386
22	0x3e0c7058	0.1371473
23	0x3d0618f3	0.032738637
24	0x3df99cec	0.121881336
25	0xbddd3867	-0.108017735
26	0x3e2e0a91	0.16996218
27	0xbdbd202c	-0.09234652
28	0xbda47caf	-0.08031594
29	0xbe0407ba	-0.12893572
30	0xbe23af9d	-0.1598496
31	0x3e263881	0.16232492
32	0xbd4b9357	-0.04970106
33	0xbd4561c5	-0.048188943
34	0x3d69ad04	0.057049766
35	0x3c9be5a7	0.019030405
36	0xbb8e3cbf	-0.0043407376
37	0x3e089557	0.13338219
38	0xbdf6582c	-0.12028536
39	0x3e4460e5	0.19177587
40	0x3d802072	0.062561885
41	0xbd67a3be	-0.05655264
42	0xbbb69346	-0.0055717556
43	0x3d4d55b6	0.05013057
44	0x3d9d1cda	0.076715186
45	0x3e71ec1b	0.23625223
46	0xbe24928f	-0.16071533
47	0xbdaf4387	-0.08557802
48	0x3e43d27f	0.19123267
49	0xbe155b49	-0.14585604
50	0x3ce8b164	0.028404899
51	0x3dfd5a5b	0.123707496
52	0xbcab8658	-0.020938084
53	0x3ca9dce7	0.020735217
54	0xbcd6d667	-0.026225282
55	0x3db2bb4f	0.087271325
56	0xbcf27bc7	-0.029600037
57	0xbe1c34be	-0.15254495
58	0x3d304648	0.043035775
59	0x3c81a6ef	0.01582667
60	0x3e0fa42f	0.14027475
61	0xbd4e8fbd	-0.05043005
62	0x3d639048	0.05555752
63	0x3d2276f7	0.039664235
64	0xbd9ab4b3	-0.07553997
65	0xbe0b9257	-0.13630043
66	0x3dca70e8	0.098848164
67	0x3d89ba8e	0.067250356
68	0x3d5276e9	0.051382933
69	0x3d254448	0.04034832
70	0xbd7e64cb	-0.062107842
71	0xbd53a574	-0.05167146
72	0xbdf70c3c	-0.120628804
73	0xbc45fa6b	-0.01208363
74	0x3bfde705	0.007748487
75	0x3dca864d	0.09888897
76	0x3daec66f	0.08533942
77	0x3e16e535	0.14735873
78	0xbdedbfc0	-0.11608839
79	0x3e13de01	0.14440157
80	0x3e2e6367	0.17030106
81	0xbdf6c45f	-0.120491736
82	0x3d031c0f	0.03200918
83	0xbd1dc791	-0.0385204
84	0xbcdb132f	-0.026742546
85	0xbdcdc742	-0.10047771
86	0x3e0ade3e	0.13561341
87	0xbd91ec03	-0.07125094
88	0x3e14f395	0.14546044
89	0xbcb071fb	-0.021538725
90	0xbe83c05f	-0.25732705
91	0xbe2e26fb	-0.17007057
92	0x3d27c9e2	0.040964015
93	0xbdfd7b19	-0.12376995
94	0xbe3827bf	-0.17983912
95	0xbe619404	-0.2202912
96	0xbc09f7ad	-0.008420867
97	0xbc8fc55f	-0.017550169
98	0xbde17472	-0.11008538
99	0x3cac3fdb	0.021026542
100	0xba0e6343	-0.0005431661
101	0x3d5b8a83	0.053598892
102	0x3d346ad5	0.044047195
103	0x3c4c0b86	0.012453919
104	0xbda678c5	-0.08128504
105	0x3d6aec9e	0.057354562
106	0xbc2042ea	-0.009781579
107	0x3d31305c	0.04325901
108	0xbe2f417d	-0.17114826
109	0xbdc7ac44	-0.09749654
110	0x3db1854e	0.08668004
111	0x3d6c538b	0.05769686
112	0xbe323e70	-0.1740663
113	0xbd5c9203	-0.053850185
114	0x3d8f28ab	0.06990179
115	0x3d9c0dd6	0.076198265
116	0xbe073e24	-0.13207299
117	0xbe19e061	-0.15027
118	0xbd894992	-0.067034855
119	0xbddd4f81	-0.1080618
120	0x3b7db5ee	0.0038713175
121	0xbdfca0e4	-0.12335375
122	0xbe3a93d6	-0.18220457
123	0xbdd81b33	-0.10552063
124	0x3e05ec17	0.13078342
125	0xbce39594	-0.027781285
126	0xbe11b9af	-0.14230989
127	0x3d82c9b7	0.0638613
128	0xbd58763c	-0.052847132
129	0xbdce7c15	-0.100822605
130	0x3da5d0d2	0.0809647
131	0xbd6a6c8e	-0.057232432
132	0x3d73052b	0.0593311
133	0x3e4d3143	0.20038323
134	0xbe1ada41	-0.1512232
135	0xbcba1558	-0.022715256
136	0x3ccb93a2	0.02485067
137	0x3cdd2bc3	0.026998406
138	0xbe2f11c3	-0.1709662
139	0x3d817f00	0.063230515
140	0x3d779694	0.060446337
141	0x3d28ae79	0.041182015
142	0xbc9bdf79	-0.019027459
143	0x3b5bcafe	0.003353774
144	0x3dcb7690	0.099347234
145	0x3d879cc2	0.06621696
146	0x3d0ebcb1	0.03484792
147	0x3cb10320	0.021607935
148	0x3d94a82f	0.07258641
149	0x3dbb4670	0.09144294
150	0xbe23d649	-0.15999712
151	0xbdd4db64	-0.10393408
152	0x3cabbe90	0.02096489
153	0x3e0e88be	0.1391935
154	0xbdb045fc	-0.086070985
155	0x3e1798ac	0.14804333
156	0xbd8c3da6	-0.06847696
157	0x3c82c08f	0.01596096
158	0xbd7bf941	-0.061517004
159	0xbdd71ed7	-0.10503929
160	0xbe0c3606	-0.13692483
161	0xbdcd02e2	-0.100103155
162	0x3e3fe8bc	0.18741125
163	0xbc60faea	-0.013731698
164	0x3deb2d46	0.114832446
165	0xbe1498ad	-0.14511366
166	0x3a947f2f	0.0011329408
167	0xbdc55399	-0.096350856
168	0xbd8a5bc5	-0.06755785
169	0xbdcd2ffd	-0.10018919
170	0xbd998d89	-0.07497699
171	0x3e067a4a	0.13132587
172	0x3d7577dc	0.05992876
173	0x3e0c05f6	0.13674149
174	0xbdff16ad	-0.12455497
175	0xbdfd69f1	-0.12373722
176	0x3bfe4bc6	0.0077604977
177	0xbcec382f	-0.028835384
178	0x3e2db73f	0.16964434
179	0xbe181067	-0.14850007
180	0x3e310d3a	0.17290202
181	0x3d1cb07f	0.038254257
182	0xbdbcb620	-0.09214425
183	0x3e67b309	0.2262689
184	0x3e495144	0.19659907
185	0xbd85d71d	-0.0653517
186	0x3d74c356	0.0597566
187	0x3ded03f1	0.115730174
188	0xbddf49ed	-0.10902772
189	0xbe549b3b	-0.2076234
190	0xbc7914db	-0.015202726
191	0xbddf5e9b	-0.109067164
192	0x3e4bcdd2	0.19902733
193	0xbe6369f6	-0.2220839
194	0x3dc203f8	0.09473413
195	0x3d1abb9c	0.037776574
196	0xbe564481	-0.2092457
197	0xbd693690	-0.0569368
198	0x3e616d02	0.2201424
199	0x3d739907	0.05947211
200	0xbe3a2c36	-0.18180928
201	0xbd76f5c3	-0.06029297
202	0xbc7abf75	-0.015304436
203	0xbc9b48d5	-0.018955627
204	0xbb41d31c	-0.0029575294
205	0x3ce3c3dd	0.027803356
206	0xbc870fa9	-0.01648696
207	0x3e24fd01	0.16112138
208	0xbcfad10b	-0.030617258
209	0xbe069cae	-0.13145706
210	0xbe40a605	-0.18813331
211	0x3df167a9	0.1178735
212	0x3c713f74	0.014724601
213	0xbd36c5b5	-0.044622142
214	0xbd74b681	-0.05974436
215	0xbde73f52	-0.11291374
216	0x3b81ecf9	0.003965017
217	0x3e238522	0.15968755
218	0x3d913644	0.070904285
219	0x3e207e11	0.1567309
220	0xbe07573a	-0.13216868
221	0x3cdf4d1d	0.02725845
222	0x3c470756	0.012147745
223	0xbdb699b3	-0.089160345
224	0x3df791a3	0.12088325
225	0x3d18be73	0.037291
226	0xbdd833a5	-0.105567254
227	0x3c33698c	0.010950457
228	0x3cdbaa0c	0.026814483
229	0xbcb72dcf	-0.02236071
230	0xbc92168a	-0.017833013
231	0xbd94cce9	-0.07265646
232	0x3b08efc9	0.0020894876
233	0xbda95a25	-0.08269147
234	0xbde4debc	-0.11175296
235	0xbdac8df6	-0.084255144
236	0x3de72083	0.11285498
237	0x3b8db483	0.004324497
238	0xbe81e4d6	-0.253699
239	0x3e4138dc	0.18869346
240	0xbe389dc1	-0.18028928
241	0x3c835bb0	0.016034931
242	0x3e012879	0.12613095
243	0x3d77f3c6	0.060535215
244	0xbd75cc41	-0.060009245
245	0x3d1f3183	0.038865577
246	0x3d276b16	0.04087361
247	0xbe072085	-0.13195999
248	0x3d61716d	0.055039812
249	0x3e1cd6fb	0.15316384
250	0x3e390069	0.18066563
251	0xbe048a81	-0.1294346
252	0x3cb6f5a9	0.022333937
253	0xbac2b653	-0.0014855362
254	0xbdd80344	-0.10547498
255	0xbc63d76f	-0.013906344

decoder.bias_ih_l0 f4 [176]
0	0x3dbeadff	0.09310531
1	0x3de6f56e	0.11277281
2	0x3e4ddd30	0.20103908
3	0x3c726a93	0.014795917
4	0x3d86a0b7	0.06573623
5	0x3ca1302d	0.019676292
6	0xbd321198	-0.04347381
7	0x3e1a16ae	0.15047714
8	0x3d707ee6	0.05871477
9	0xbc1bf015	-0.009517689
10	0x3e55781c	0.208466
11	0x3e197b9b	0.14988558
12	0x3d0a4736	0.03375932
13	0x3e405741	0.18783285
14	0x3e4272e2	0.18989137
15	0x3e229b86	0.1587964
16	0xbd84322a	-0.064548805
17	0x3e5d23e7	0.21595727
18	0x3e478930	0.19485927
19	0x3e2d7048	0.16937363
20	0x3df1193f	0.117723934
21	0x3dd7e8f4	0.10542479
22	0xbdc6ad55	-0.09701029
23	0xbdf06158	-0.11737317
24	0x3d162fa3	0.036666524
25	0xbba87c7f	-0.005141794
26	0xbd72c9c0	-0.059274435
27	0x3e2fc2ca	0.1716415
28	0x3e33880f	0.17532371
29	0x3dd31ebe	0.10308598
30	0xbc31c887	-0.010851032
31	0x3e0b8432	0.13624647
32	0x3e1ca4cb	0.15297239
33	0x3df5a46b	0.11994251
34	0x3da41dd4	0.08013502
35	0x3e20cb5b	0.15702574
36	0xbd971a70	-0.073780894
37	0x3e287509	0.16450895
38	0x3e26c145	0.16284664
39	0x3e3c1949	0.1836902
40	0x3d29c401	0.04144669
41	0xbd691f2a	-0.056914486
42	0x3df12459	0.11774511
43	0xbe051cd1	-0.12999274
44	0x3e26345a	0.16230908
45	0xbd0224c6	-0.03177335
46	0xbda300d6	-0.07959144
47	0x3d81eb98	0.06343764
48	0x3d03f5f8	0.032216996
49	0x3debf648	0.11521584
50	0x3d871b97	0.06597059
51	0xbc61200b	-0.01374055
52	0x3e25fc7b	0.16209595
53	0x3dfb103e	0.12258957
54	0xbcae8920	-0.02130562
55	0x3e376b98	0.17912138
56	0x3df60948	0.12013489
57	0xbdecd89b	-0.11564752
58	0xbdcb34ce	-0.09922181
59	0x3e23a361	0.15980293
60	0xbdb543c0	-0.08850813
61	0x3e0c4dd1	0.1370156
62	0x3e324bc9	0.17411722
63	0x3c037969	0.008024552
64	0x3dea8477	0.11451047
65	0x3ccbbdad	0.024870718
66	0x3cfd947b	0.03095459
67	0x3d711ab0	0.05886334
68	0x3c616e8c	0.013759267
69	0x3df0e226	0.117618844
70	0x3e1de419	0.15419044
71	0xbc2c90fd	-0.010532615
72	0xbd4b7a5b	-0.049677234
73	0xbd5166a9	-0.051123295
74	0xbd09b88d	-0.033623267
75	0x3c5bb111	0.013408915
76	0x3e1d5dc4	0.153678
77	0x3e022f47	0.12713347
78	0xbd4ae2ee	-0.049532823
79	0xbd9e7283	-0.07736685
80	0xba469a5d	-0.00075761025
81	0x3c7ac6bd	0.015306172
82	0xbd62e3e1	-0.055393104
83	0xbdd07f60	-0.10180545
84	0x3ce89b9b	0.028394511
85	0xbc67646c	-0.014123064
86	0xbd95eb40	-0.07320261
87	0x3d82ac65	0.06380538
88	0x3d57715b	0.05259834
89	0xbccb3796	-0.024806779
90	0xbd8c5c25	-0.06853513
91	0xbd179927	-0.03701129
92	0x3d153716	0.036429487
93	0xbe0bdf8c	-0.13659495
94	0xbb051a4e	-0.0020309868
95	0x3db2e26c	0.08734593
96	0x3e2e0788	0.1699506
97	0xbd4a61aa	-0.049409546
98	0x3def9f26	0.11700277
99	0x3e2b3789	0.16720404
100	0xbdc06e51	-0.09396041
101	0xbc19a93e	-0.009378729
102	0x3d236f78	0.039901227
103	0xbe159ace	-0.14609835
104	0x3df74b8c	0.12074956
105	0xbd283edc	-0.041075572
106	0x3dd9e628	0.10639602
107	0x3da5956f	0.08085143
108	0x3e119571	0.14217164
109	0x3da6cf7e	0.08145045
110	0x3d543f19	0.051817987
111	0xbe026739	-0.12734689
112	0x3c3e2cb9	0.011607342
113	0xbe0322cf	-0.12806247
114	0x3df15066	0.11782913
115	0xbd8e13ac	-0.06937346
116	0xbc5b8fb6	-0.013400963
117	0xbd65e4fc	-0.05612658
118	0x3ce6b544	0.028162606
119	0x3df35fcd	0.11883507
120	0xbdb6e3d8	-0.089301765
121	0x3cf38244	0.029725201
122	0x3d1a44d5	0.0376633
123	0x3cd13752	0.025539074
124	0x3dbda3fb	0.092597924
125	0x3dec9ad1	0.115529664
126	0x3d465eb3	0.048430156
127	0x3d711c68	0.05886498
128	0xbdb4b4e9	-0.088235684
129	0x3dc5d798	0.09660262
130	0x3e030f3e	0.12798783
131	0x3df24466	0.11829452
132	0x3dd23fb7	0.10266059
133	0x3dec39a6	0.11534433
134	0x3e126294	0.14295417
135	0x3b3f017c	0.0029145172
136	0x3d46305c	0.048385963
137	0x3e6137a8	0.21993887
138	0x3c913883	0.017727142
139	0x3dd8bd30	0.1058296
140	0x3e0a394f	0.13498424
141	0xbdf3780f	-0.11888134
142	0x3d4102d3	0.047121834
143	0x3c37b138	0.011211686
144	0x3e2c9e59	0.1685728
145	0x3cdff75d	0.027339632
146	0x3dbec4d0	0.09314883
147	0xbc8ee286	-0.017442
148	0x3df7d4fb	0.1210117
149	0x3deec3ac	0.11658415
150	0x3dc94090	0.098267674
151	0x3d921ca6	0.071343705
152	0xbd4184c3	-0.047245752
153	0x3dcf82e8	0.1013239
154	0xbce48ea6	-0.027900051
155	0xbda55e66	-0.08074646
156	0xbd84f7ac	-0.06492552
157	0xbd3ca35d	-0.046054233
158	0xbcb5a55c	-0.022173576
159	0x3e331665	0.17489012
160	0xbd17fd1d	-0.037106622
161	0x3cf1a472	0.029497359
162	0x3d8ae33b	0.06781622
163	0xbd502eaa	-0.050825752
164	0xbccc86b4	-0.024966575
165	0x3d51e12d	0.051240135
166	0x3e3ce328	0.18446028
167	0x3e003759	0.12521113
168	0x3bff1633	0.007784629
169	0x3d1fa6c4	0.0389774
170	0xbc23e1c2	-0.010002555
171	0x3d97a740	0.07404947
172	0xbb464895	-0.0030255665
173	0x3dcf6d89	0.10128314
174	0xbc9afe4d	-0.018920088
175	0xbd7394d6	-0.059468113

decoder.bias_hh_l0 f4 [176]
0	0x3d95494e	0.072893724
1	0x3e65f8e9	0.22458233
2	0xbd5c0d66	-0.053723715
3	0x3db72871	0.089432605
4	0xbccc56e7	-0.024943782
5	0xbcbd61b0	-0.02311787
6	0x3dd9d751	0.106367715
7	0x3dff5a7a	0.12468429
8	0x3d0d2cc1	0.03446651
9	0x3cc7d555	0.024393717
10	0xba1a3cc9	-0.00058836915
11	0x3e3317ad	0.174895
12	0xbc5c0542	-0.013428988
13	0x3b5582e3	0.0032579235
14	0x3e4e6a1b	0.20157664
15	0x3e3b1b58	0.1827215
16	0x3e0ecb1d	0.13944669
17	0x3d23f08f	0.040024336
18	0x3e439c47	0.19102584
19	0xbd252ad9	-0.040324066
20	0xbc269ebe	-0.010169683
21	0x3daef2c3	0.08542397
22	0xbdb33268	-0.087498486
23	0xbdb1772f	-0.086653106
24	0x3df2a254	0.11847368
25	0x3e0150fd	0.12628551
26	0x3da8e05a	0.08245917
27	0x3e4d9d74	0.20079595
28	0x3d92172c	0.07133326
29	0x3de1ea44	0.11031011
30	0x3e251c03	0.16123967
31	0xbd2c1e50	-0.042021096
32	0x3e41c056	0.18921027
33	0x3d500546	0.05078628
34	0x3cff32a3	0.031152075
35	0xbc3eaf8a	-0.011638531
36	0xbc45ff21	-0.012084753
37	0xbcdca49b	-0.026933959
38	0x3d0cc14e	0.034364037
39	0x3c0ce1a0	0.008598715
40	0x3b3b1190	0.0028544404
41	0xbdd0f91d	-0.102037646
42	0xbde82d42	-0.11336757
43	0xbe15dba2	-0.14634565
44	0xbdacc5f6	-0.084361956
45	0x3ca69e93	0.020339286
46	0xbd807bc6	-0.06273608
47	0xbccc65e6	-0.024950933
48	0xbbaeee72	-0.0053384835
49	0x3e0ba423	0.13636832
50	0x3dc698b3	0.09697094
51	0xbdc03800	-0.09385681
52	0xbd5761f3	-0.052583646
53	0x3c75e885	0.01500905
54	0xbda8a4db	-0.08234569
55	0xbc9dadca	-0.019247908
56	0x3ddc041d	0.10742972
57	0x3decc69d	0.1156132
58	0xbd32e70b	-0.04367737
59	0x3d60cf79	0.05488536
60	0xbe055b30	-0.13023067
61	0x3dea42aa	0.114384964
62	0xbd2f52a0	-0.042803407
63	0xbd1fc74b	-0.03900842
64	0x3e0c879b	0.13723604
65	0x3e4f3437	0.20234762
66	0xbc3ebccf	-0.011641695
67	0x3d89872e	0.067152366
68	0xbd468741	-0.048468832
69	0xbd681ad7	-0.05666622
70	0xbdbb34a0	-0.09140897
71	0x3d8ec0c8	0.06970364
72	0x3dbc6d36	0.09200518
73	0x3d969852	0.073532715
74	0xbdaee7d6	-0.08540313
75	0x3da3fc38	0.08007091
76	0x3d9ae493	0.07563128
77	0xbd1a4c9a	-0.03767071
78	0x3a9c6378	0.00119315
79	0x3d40992c	0.047021076
80	0x3de479a2	0.11156012
81	0xbd616ab0	-0.055033386
82	0xbcb87d8c	-0.022520803
83	0x3e1c7c43	0.15281777
84	0xbbad5a66	-0.0052903173
85	0x3d96a418	0.07355517
86	0x3de71190	0.11282647
87	0x3d3a2705	0.04544737
88	0x3cfe8aa5	0.03107197
89	0xbdbafacb	-0.09129866
90	0x3d0a5a8c	0.03377776
91	0xbdc03d2c	-0.093866676
92	0xbd91b854	-0.07115236
93	0xbdd200e5	-0.10254077
94	0xbcb6acc4	-0.022299178
95	0x3e0d327a	0.13788787
96	0xbdab6069	-0.08367998
97	0xbbd551ac	-0.00650998
98	0xbd8acf83	-0.06777861
99	0xbca341b0	-0.019928783
100	0xbd936211	-0.07196439
101	0xbdf5f056	-0.12008731
102	0x3db8aa45	0.09016851
103	0xbd159f93	-0.036529135
104	0xbceb30f6	-0.02870987
105	0xbc610c84	-0.013735894
106	0x3ddc1de7	0.10747891
107	0xbde80bcc	-0.11330375
108	0xbe0ec3cb	-0.13941877
109	0xbc49de78	-0.012321107
110	0x3e02714b	0.1273853
111	0x3d8543bb	0.06507059
112	0xbda8d287	-0.0824328
113	0xbdd627ef	-0.104568355
114	0x3be1de82	0.00689298
115	0x3dbb8017	0.091552906
116	0xbdc906be	-0.09815739
117	0xbda4b076	-0.0804147
118	0xbdd14c82	-0.10219671
119	0xbd526e75	-0.05137487
120	0x3e009c04	0.12559515
121	0xbd1cf9a0	-0.038324
122	0xbc84dce8	-0.016218618
123	0x3cc5728a	0.024102468
124	0x3cc17c45	0.023618827
125	0x3d1ebe97	0.03875598
126	0xbdc08304	-0.09399989
127	0x3d9f2694	0.0777103
128	0xbe021929	-0.1270491
129	0x3c5c8c28	0.01346115
130	0x3db61cfb	0.08892246
131	0x3dd2adc5	0.1028705
132	0x3c062962	0.008188577
133	0x3e6afeeb	0.22948806
134	0x3da735b9	0.08164544
135	0x3e35123c	0.17682737
136	0x3d9cee22	0.07662608
137	0x3e76f391	0.2411635
138	0xbd8c7584	-0.06858352
139	0xba480456	-0.00076300406
140	0x3d6ab56b	0.05730192
141	0xba2321a0	-0.0006222967
142	0x3e322085	0.17395218
143	0x3dfd7a87	0.12376886
144	0x3b8dea9b	0.0043309457
145	0x3e857642	0.26066786
146	0xbcbcb9a0	-0.023037732
147	0x3cf11c3a	0.029432405
148	0x3be73ec7	0.007057044
149	0xbc6a1224	-0.014286552
150	0x3dd1315a	0.10214491
151	0x3df14efc	0.11782643
152	0x3ce1e40e	0.027574565
153	0x3e2d8fd8	0.16949403
154	0x3da69362	0.0813358
155	0x3da7b63c	0.08189055
156	0x3e0717df	0.131927
157	0xbde7453b	-0.112925015
158	0x3dad0075	0.08447353
159	0x3ce026cf	0.027362255
160	0x3c8cb9de	0.017178472
161	0x3def440f	0.11682903
162	0x3e369e40	0.17833805
163	0x3cbe265b	0.023211649
164	0x3e13082a	0.14358583
165	0x3d78446e	0.060612135
166	0x3e0d78e5	0.13815649
167	0x3e08b1cc	0.13349074
168	0xbb261635	-0.0025342826
169	0x3e4c281d	0.19937177
170	0x3e51e6af	0.20498155
171	0x3e00bbae	0.12571594
172	0x3ccf9492	0.025339399
173	0xbe2e6502	-0.17030719
174	0x3d2d0c1e	0.042247884
175	0x3d150899	0.036385152
